Edge Computing Task Submission/TensorArena/dht_classifier.tflite (tflite, 3720 bytes, 6 tensors)

arith.constant f4 [5, 16]
00000000: cba7 0fbf 0c7d b4bf edc6 d33e bb05 023f
00000010: 9309 05bd 733c 9b3e 287c 003f 2be1 123f
00000020: e915 debf e859 e13e 441f 023e 6771 d4bf
00000030: af62 75be 99e5 e53e 5fb4 a3bf d336 e03e
00000040: d6ee 3e3f 0be2 edbe d889 3e3f 5738 3e3f
00000050: 98b2 b8bf b1d9 213f 1681 3a3f 1591 563f
00000060: 0b9d 54bf 9c75 13c0 acbf 05c0 63e3 cfbe
00000070: 44ae c2bf 471f 523f 7f3e 8e3d 537e cbbf
00000080: 2c59 d1bf 1203 91bc 2853 00c0 24c6 04c0
00000090: 87e4 233f f23b 09c0 a4e4 cdbf 541d e6bf
000000a0: 84f0 56bf 22f9 563f 7e32 003f 548d 48bf
000000b0: b7f0 233e 0243 eebf ba65 cdbf ad2b 553f
000000c0: a801 5abf 097b f33f 7f9c b6bf b90d 353f
000000d0: bc0b 113f e678 f4bf 6c06 333f c29e 1f3f
000000e0: 1f3e 69bf d59e 93bf 7453 b4bf 83e9 f33f
000000f0: f4e5 273e a9b7 e2bf da7a 943f 624d adbf
00000100: 695d 9b3f de4e 95bf 93fa 193f 533d f6bf
00000110: 61b7 e8be efea e43e 8fd8 debf 9e50 73bf
00000120: 709f e23f 4497 353f 12d9 be3e fba8 75bf
00000130: eee2 4cbf ca90 203f 47eb 4ebf 0a08 2b3f
-0.56115407 -1.4100661 0.41362706 0.50789994 -0.032479834 0.30319557 0.5018945 0.5737483
-1.7350436 0.44013906 0.1270724 -1.6597108 -0.23963426 0.44901732 -1.278942 0.43791828
0.74583185 -0.4646152 0.7442908 0.7430472 -1.4429502 0.63222796 0.7285322 0.8381513
-0.8305213 -2.3040533 -2.0898237 -0.4060317 -1.5209432 0.82078975 0.06945514 -1.5897926
-1.6355338 -0.01770166 -2.0050755 -2.0745935 0.6402058 -2.1442838 -1.60854 -1.79777
-0.8396075 0.83973897 0.50077045 -0.7834065 0.16009794 -1.8614199 -1.604667 0.8326977
-0.8515878 1.9021922 -1.4266509 0.70724064 0.5665853 -1.9099395 0.69931674 0.6235162
-0.91110414 -1.1532847 -1.4087968 1.9055637 0.16396314 -1.7712299 1.1599991 -1.353924
1.2137882 -1.1664693 0.6014797 -1.9237465 -0.45452407 0.4471049 -1.7409838 -0.9504489
1.7704906 0.7093394 0.37274987 -0.9596097 -0.8003377 0.6272093 -0.80827755 0.6680914

arith.constant1 f4 [16, 16]
00000000: e5f4 f2bd 8485 31be 1893 793d be31 113f
00000010: 82e6 6709 87c1 ff3c b571 3abf 7ba1 98be
00000020: c6bd 023f 1398 6a3d e2b5 ad89 d85b c18a
00000030: 03c7 0dbf bd31 fa3e 5b5c 5308 6789 ea3e
00000040: df0c a03d f72d 133d b7ed f2be e5cb 25bf
00000050: 0eb4 e089 7bc6 173e a299 ae3e d012 bb3d
00000060: 502a 14bf 8d70 cbbe f880 b008 f8dd d609
00000070: f292 2a3e 17b8 16bf 4178 388b 8740 26bf
00000080: 1310 753d 85f2 b4bc 1dca a13b 3128 7a3f
00000090: bd83 e708 8430 943c e725 4cbc 2c36 d8bb
000000a0: b9cf 683f cc82 083c 8edc 8308 885d 3889
000000b0: 3ca3 1b3c c4c6 5b3f f107 ee09 75f9 673f
000000c0: 45f3 8d3f 09c2 763f f3f7 90bc 1550 e13b
000000d0: 4efb 9f09 f401 893f e87d 0abd aa70 743f
000000e0: 04cd 613c aa0b eabc ad56 a807 fcc5 9409
000000f0: 6035 a33e 1617 923c b8e4 6789 401e 07bb
00000100: 928f ecbd 75ff 9dbd 04ce 423d 87ce a6be
00000110: b5ca 0889 a5d4 01be 132d 3d3f 75b4 b33c
00000120: 7fae bcbe fa26 f23d 7991 4009 8222 2c09
00000130: 3a55 463e 749e c3be e02b 4c0b fc39 c1be
00000140: 3abf 99bb 4546 98bb 7f26 273c 7365 673f
00000150: 086f 0d08 447e b53c 9529 66bb 3310 493b
00000160: fc27 803f 3917 aa3b 844a 9e8a 2213 d988
00000170: d727 813c 02e8 783f e05d 4a87 c487 713f
00000180: b2cf 873f 308a 843f 8519 2ebd 8a8b 013d
00000190: b010 c308 96e6 813f 3fe8 8ebc 5a10 6e3f
000001a0: ec5a 4b3c 4426 20bd 1ed7 8689 5c20 a889
000001b0: 9f1d 9a3e 17b2 113c 495e 2889 ca99 b33b
000001c0: 8029 693f 0a7d 753f cc41 b2bd 85c6 c53d
000001d0: 1133 ae89 6556 513f 07cb d5bc 2a20 5e3f
000001e0: 5be3 24bd b19d bbbd 3f6a 9609 ae6f 8e09
000001f0: 62d9 f03e 42de c43d 2aaa ad89 c14d 433d
00000200: 4f5b dcbe 4c98 10bf b1ea 4b3e dd01 a43e
00000210: c81d ef08 1a34 debe 87fd 0fbf ea05 1abf
00000220: bbac 6b3e 9138 403e f44d 9188 d263 db08
00000230: b5c0 47bf 01bd ad3e dd90 af09 c2e0 943e
00000240: 2e03 4bbe 0bc5 4ebe 2f4d a13f 8cfe ccbd
00000250: 5514 6109 62db 65be 2b0b 7d3d 1a5b 59be
00000260: 71a3 d0bd 303b a23f 6d25 b389 143d b609
00000270: 4fb0 50be 3111 fbbd f5fa 1f09 7822 96bd
00000280: ea00 4dbe 0a9d 53be 3ff7 a13f 22da abbd
00000290: 0904 7d89 882c 74be d462 313d 861a 63be
000002a0: 682d 52bd 5fb5 9b3f a84b b589 740f e788
000002b0: 4ad7 52be 0111 7fbd 58c4 4789 ecda ebbd
000002c0: cfae 3d3e d240 133e d8c2 f5be c980 19bf
000002d0: 34d7 3c09 c42f df3d bbf3 313e a3e0 dc3d
000002e0: 4189 2dbf 1b60 10bf 1971 b209 b52f ce89
000002f0: be70 b13d a2fe 16bf 4595 ac89 8925 23bf
00000300: ecfc 07be 4cda 8cbd ec69 ec3d 91e0 87be
00000310: 0404 ef09 bdcf 38be d3dd 473f 5a68 90bd
00000320: 7c2f a5be ab30 793d 0dbc cc89 dbfa 5409
00000330: b2b8 713e 83bb 9ebe 1df6 cc88 8697 a7be
00000340: 26a0 253c 1e82 3f3c 7901 933b 293b 663f
00000350: b02b e006 1397 963c 9a67 41bc dad9 3e3b
00000360: 4ba5 6f3f 0fa4 c93c 5ce0 6288 9941 6189
00000370: eefb 373c f757 7e3f 9050 2289 9d9d 4f3f
00000380: 0721 bb3e e9f5 7f3e 809d 16bf dbf1 7ebe
00000390: 802a 6689 e233 883e 97aa 863e 891b c83e
000003a0: 844c 29be 3653 13bf f07a 9708 50e1 6c88
000003b0: 8304 543e 6466 b4be 3e6b a089 a8ba 35be
000003c0: e225 7dbe a401 5cbe 3953 9c3f 8f4d babb
000003d0: a8dd 8b89 9bdb 91be 46de d2bc 33be 6cbe
000003e0: 6b1f 62bd 3529 9f3f b453 8909 7688 8487
000003f0: 1870 5bbe 69ee 04bd c921 cd09 f8bb 7dbd
-0.11863116 -0.17336088 0.060931295 0.56716526 2.7913998e-33 0.03122021 -0.72829753 -0.298107
0.5107082 0.057273936 -4.1819277e-33 -1.8619772e-32 -0.5538179 0.48866072 6.3604066e-34 0.45807955
0.07814955 0.035932507 -0.47446987 -0.64764243 -5.409536e-33 0.14821808 0.34101588 0.091344476
-0.57877064 -0.39734307 1.0622935e-33 5.1727364e-33 0.16657618 -0.5887465 -3.552758e-32 -0.6494221
0.059829783 -0.022088299 0.004937424 0.9771758 1.3933778e-33 0.01808954 -0.0124602085 -0.0065982547
0.9094196 0.008331966 7.936128e-34 -2.2192173e-33 0.009499367 0.8585017 5.7303884e-33 0.90615016
1.1089865 0.96389824 -0.017696356 0.0068760016 3.8514183e-33 1.0703721 -0.03381148 0.9548441
0.01378179 -0.028570015 2.5328774e-34 3.5815888e-33 0.3187666 0.017833274 -2.7913157e-33 -0.0020617396
-0.11550821 -0.0771474 0.047559753 -0.32579443 -1.6465717e-33 -0.12678774 0.738969 0.021936635
-0.3685188 0.118238404 2.317956e-33 2.0719972e-33 0.19368449 -0.38206828 3.932198e-32 -0.3773955
-0.0046919854 -0.0046470487 0.010202049 0.90389174 4.256116e-34 0.022154935 -0.003512 0.0030679822
1.0012202 0.0051907566 -1.5242876e-32 -1.30647105e-33 0.015766067 0.97229016 -1.5224378e-34 0.94347787
1.0610259 1.0354671 -0.042504806 0.031627215 1.1740059e-33 1.0148494 -0.017444728 0.929937
0.012411814 -0.039098993 -3.246162e-33 -4.047496e-33 0.30100724 0.008892558 -2.0266597e-33 0.0054809796
0.9107895 0.9589392 -0.08703956 0.09657005 -4.1937e-33 0.8177245 -0.026097788 0.8676783
-0.040255886 -0.091609366 3.62111e-33 3.429028e-33 0.4704085 0.09612705 -4.1808257e-33 0.047681574
-0.43038413 -0.56482387 0.19913746 0.32032672 1.4391291e-33 -0.43399125 -0.5624623 -0.60165274
0.2301511 0.18771578 -8.745197e-34 1.3204051e-33 -0.7802842 0.3393326 4.2265946e-33 0.29077727
-0.19825432 -0.20192353 1.260168 -0.100094885 2.709295e-33 -0.22446969 0.06177823 -0.21226159
-0.10187424 1.2674313 -4.3127878e-33 4.3872344e-33 -0.20379756 -0.122591384 1.9256928e-33 -0.07330793
-0.2001988 -0.20665374 1.2653579 -0.08391215 -3.0455665e-33 -0.23845112 0.04330714 -0.22178087
-0.051312834 1.2164725 -4.364531e-33 -1.390644e-33 -0.20589939 -0.062272076 -2.4046074e-33 -0.115163654
0.18523715 0.14380196 -0.48000216 -0.59962136 2.2730865e-33 0.108977824 0.17378132 0.107850336
-0.6778756 -0.56396645 4.2958298e-33 -4.963756e-33 0.08664082 -0.5898229 -4.1547866e-33 -0.6372915
-0.13280076 -0.06877574 0.115436405 -0.26538518 5.7540933e-33 -0.18047996 0.7807285 -0.070511535
-0.3226279 0.06083743 -4.9288056e-33 2.5636523e-33 0.23605612 -0.31002435 -1.2335664e-33 -0.3273279
0.010108983 0.011688737 0.0044862595 0.8993402 8.432363e-35 0.018382585 -0.011804486 0.002912155
0.9361159 0.024614362 -6.8273134e-34 -2.7114234e-33 0.011229498 0.99352974 -1.9537921e-33 0.81099874
0.36548635 0.24996151 -0.58834076 -0.24896948 -2.7705226e-33 0.26602083 0.26302025 0.39083508
-0.16533095 -0.57548845 9.116884e-34 -7.128352e-34 0.20704846 -0.35234368 -3.861945e-33 -0.17746985
-0.24721482 -0.21485001 1.2212898 -0.0056855152 -3.3671477e-33 -0.28487858 -0.025740754 -0.2311943
-0.055205744 1.243445 3.3060264e-33 -1.9941357e-34 -0.21429479 -0.03245393 4.9383726e-33 -0.06194684

arith.constant2 f4 [5]
00000000: 64f1 533e 96c3 23bf 8817 4c3f 66ac 53be
00000010: 240d afbe
0.20697552 -0.63970315 0.79723406 -0.20671234 -0.34189713

sequential_1/dense_1_2/BiasAdd/ReadVariableOp f4 [16]
00000000: 8442 40be 332f e43d ea55 c0bb 576a dcbc
00000010: cac0 043f 56d5 a5bc 9e04 a1bc 0820 9abc
00000020: 2174 e9bd 7fc8 f43e 5321 093f 9f95 dd3d
00000030: de7f 0a3f 2469 afbc 8fbc 0ebe 51e6 ff3e
-0.18775374 0.11141815 -0.0058696168 -0.026906176 0.5185667 -0.020243328 -0.019655522 -0.018814102
-0.11399103 0.47809216 0.53566474 0.108195536 0.5410136 -0.02141244 -0.13939117 0.49980405

sequential_1/dense_1/BiasAdd/ReadVariableOp f4 [16]
00000000: cee7 02bf 7692 e0be cb83 223f 48ce c4be
00000010: 91c9 3d92 ffed 00bf c569 eb3e 5552 b5be
00000020: eec7 b0be 0803 1b3f 4036 969c ac4c a5b1
00000030: 8d0b 52ba 00bd adbe 7ff2 34a2 079f bdbe
-0.51134956 -0.4386174 0.6348235 -0.3843863 -5.9886334e-28 -0.50363153 0.45979133 -0.35414377
-0.34527534 0.605515 -9.940191e-22 -4.8108486e-09 -0.00080125855 -0.33933258 -2.4522925e-18 -0.3703539

sequential_1/dense_1/MatMul f4 [16, 2]
00000000: aa0f 963f 3d85 213e 3d57 943f 0af8 633d
00000010: bb67 68bf 3c74 cb3c 94d9 dc3c 98d1 913f
00000020: 24cb a589 4a12 b409 8859 883f 841d 5f3e
00000030: e12d 7a3e e95c 5abf 5898 873f 7554 92bc
00000040: 8d0b 26bc 5494 8f3f 317e 59bf 973a c93c
00000050: 34e6 0f89 1ed9 4089 aa04 1407 291b 9709
00000060: 6dc4 353f e89d a1be eaa0 06bc 8b46 893f
00000070: d56e 9909 b836 5307 503e b2bc b0dd 913f
1.172353 0.15773483 1.1589123 0.05565647 -0.9078328 0.024835698 0.026959218 1.1392088
-3.9913338e-33 4.3350623e-33 1.0652323 0.21788603 0.24431564 -0.8529802 1.0593367 -0.017862538
-0.01013459 1.1217141 -0.8495818 0.02456407 -1.732124e-33 -2.3213247e-33 1.1135653e-34 3.637747e-33
0.71002847 -0.31565785 -0.008217076 1.0724653 3.6937636e-33 1.5889956e-34 -0.021758229 1.1395779
